model_mnist_net.pkl (torch, 90711 bytes, 4 tensors)

fc1.weight f4 [28, 784]
0	0x3d100680	0.03516245
1	0x3b0e232c	0.0021688445
2	0xbcf442cb	-0.029817006
3	0x3c9f0bd3	0.019414818
4	0xbcf4bd5b	-0.029875448
5	0x3c2f2a21	0.010691197
6	0xbc89c6f7	-0.016818507
7	0x3d0bb839	0.034111235
8	0x3be32f78	0.006933149
9	0x3c065394	0.0081986375
10	0xbcb23593	-0.021754062
11	0x3d065d16	0.032803617
12	0xbc7be3d0	-0.015374139
13	0x3cbb2fe7	0.02284999
14	0xbc33e003	-0.0109787015
15	0x3c935853	0.017986452
16	0xbcecf02d	-0.028923118
17	0x3cb4a3bd	0.022050733
18	0x3ced018b	0.0289314
19	0xbcc6f8d7	-0.024288578
20	0xbbf58bc6	-0.007493469
21	0xbbf7f532	-0.0075670714
22	0x3d1d58cc	0.03841476
23	0xbbdd631a	-0.0067561986
24	0xbcf67555	-0.030085245
25	0xbcbcbfaf	-0.02304062
26	0xbc26ac3b	-0.010172899
27	0x3bbe1c04	0.0058016796
28	0xbb54ce2b	-0.0032471518
29	0x3c84c72a	0.01620825
30	0xbce4ea69	-0.027943807
31	0xbc51e815	-0.01281168
32	0x3b2151c0	0.0024615377
33	0xbbcfbd65	-0.0063397163
34	0xbcc3bace	-0.023892786
35	0x3ce1a85c	0.0275461
36	0x3c5e5676	0.013570419
37	0xba56717c	-0.00081803626
38	0x3c927b90	0.017881185
39	0xbc6ceeba	-0.014461214
40	0xbccaa878	-0.024738535
41	0x3ccc1522	0.02491242
42	0x3b831640	0.004000455
43	0xbcafaff7	-0.021446211
44	0xbab7e596	-0.0014030214
45	0xbb48648a	-0.0030577504
46	0x3c2b4444	0.0104532875
47	0xbd12b451	-0.035816494
48	0x3bb4e666	0.0055206297
49	0xbcfc8eaf	-0.030829756
50	0x3c93a3c7	0.018022431
51	0xbcb7f5d2	-0.022456083
52	0x3d06b365	0.032885928
53	0x3cd92399	0.026506232
54	0x3d0d7cdb	0.0345429
55	0x3cba1bad	0.022718275
56	0x3d17ff04	0.037108436
57	0x3c6e5e6d	0.01454888
58	0x3c5f2af8	0.013621084
59	0x3cd8a276	0.026444655
60	0x3d05665f	0.03256833
61	0xbc53456f	-0.012894972
62	0xbc6fb71d	-0.01463106
63	0xbcd9fa55	-0.026608625
64	0xbbadefb7	-0.0053081173
65	0x3b53379b	0.0032229188
66	0x3c26eeff	0.010188817
67	0xbcd74d8c	-0.026282094
68	0x3c349917	0.011022828
69	0x3cede40f	0.02903941
70	0xbc59fda8	-0.013305105
71	0xbb24b3de	-0.0025131623
72	0xbd075fa7	-0.033050206
73	0x3a7b606e	0.0009589259
74	0xbd4651e3	-0.048417937
75	0xbda19090	-0.07888901
76	0xbd07af27	-0.033126023
77	0x3b5c1f3e	0.0033587958
78	0x3b86f11a	0.004118097
79	0x3bdb9f9c	0.0067023765
80	0x3d00fadf	0.03148925
81	0x3bddd9e8	0.006770361
82	0xbd02ca42	-0.03193117
83	0xbcfb84fd	-0.030703062
84	0xbcaf06c3	-0.021365529
85	0x3d0310fb	0.031998616
86	0xbc91bd02	-0.017790321
87	0x3d10af8e	0.035323672
88	0x3cc72892	0.024311338
89	0xbcc0cad1	-0.02353421
90	0xbd14692a	-0.036233105
91	0x3c19b43f	0.009381353
92	0xbcbfbfc1	-0.023406865
93	0xbbe3b9f1	-0.006949656
94	0xbd23539a	-0.03987465
95	0xbdadb695	-0.084820904
96	0xbd8a7365	-0.06760291
97	0xbd2b6d01	-0.041852
98	0xbd54d296	-0.051958643
99	0xbdee7e4e	-0.116451845
100	0xbdb2a513	-0.08722892
101	0xbd95ec1e	-0.073204264
102	0xbd9094d6	-0.07059638
103	0xbe0a6f96	-0.13519129
104	0xbe3bf0d8	-0.18353593
105	0xbdcbf0b7	-0.09958022
106	0x3b76c9a2	0.0037656804
107	0xbce1df6d	-0.027572358
108	0x3cacb6ed	0.02108332
109	0x3d3fa17f	0.046784874
110	0xbcfe04cc	-0.031008147
111	0xbc9f6109	-0.01945545
112	0xbaabcab8	-0.001310668
113	0x3b8c2c06	0.004277709
114	0xbc6db3ae	-0.014508171
115	0xbd0e574c	-0.03475122
116	0xbbb21ed7	-0.0054358053
117	0xbc6febc6	-0.014643615
118	0xbc1b22d4	-0.009468753
119	0xbd7b4c44	-0.06135203
120	0xbd24ca9b	-0.040232282
121	0xbd628735	-0.055304725
122	0xbdd550e9	-0.10415823
123	0xbdcfea33	-0.10152092
124	0x3c183d42	0.009291949
125	0xbc0056eb	-0.007833223
126	0xbcbe75ac	-0.02324947
127	0xbcd4c69e	-0.025973614
128	0x3c391b7f	0.0112980595
129	0x3d3159e2	0.04329861
130	0x3cf13df4	0.029448487
131	0xbc7b6f4b	-0.0153463585
132	0x3a1ce31b	0.0005984769
133	0xbd58e985	-0.052957077
134	0xbce70f9a	-0.028205682
135	0xbcbe2ba9	-0.023214178
136	0x3d0d0ac7	0.034434106
137	0x3d1795e1	0.03700817
138	0xbc910af1	-0.017705413
139	0xbc1ddbe3	-0.009634945
140	0xbc1efe05	-0.009704118
141	0xbc8ad3bb	-0.016946664
142	0x3d0c649e	0.034275644
143	0x3c2690f3	0.0101663945
144	0xbd149755	-0.036277134
145	0xbd9be6f0	-0.07612407
146	0xbd615b12	-0.055018492
147	0xbdf55262	-0.11978604
148	0xbddf3061	-0.108978994
149	0xbe13390d	-0.14377232
150	0xbdb70709	-0.08936889
151	0x3ccbf2a6	0.024895977
152	0x3cc6336d	0.024194444
153	0xbd40e72c	-0.047095463
154	0xbca69b65	-0.02033777
155	0xbc815228	-0.015786245
156	0x3b2d496c	0.0026441468
157	0x3d1ccced	0.03828137
158	0xbc19b927	-0.009382523
159	0x3d854b5b	0.065085135
160	0x3dbe4fec	0.09292588
161	0x3db10370	0.08643234
162	0x3cda5b99	0.026655005
163	0xbd8f16db	-0.06986781
164	0xbd89ba64	-0.06725004
165	0x3b6a876d	0.0035786286
166	0xbc8bbaaf	-0.017056791
167	0xbce5db49	-0.028058665
168	0xbc07a0ef	-0.008278116
169	0xbcc71e6a	-0.024306495
170	0xbb26d93d	-0.0025459074
171	0xbd824e8a	-0.063626364
172	0xbd92d045	-0.071686305
173	0xbdf16a9c	-0.11787912
174	0xbe137ec1	-0.14403822
175	0xbdf3d2a2	-0.119054094
176	0xbe0ca1cb	-0.13733594
177	0xbd940eaf	-0.07229363
178	0xbd3601b0	-0.044435203
179	0xbbe4f851	-0.0069876094
180	0x3bb0b891	0.005393096
181	0xbcca82df	-0.024720607
182	0xb9facfd0	-0.00047838548
183	0x3d08067d	0.033209313
184	0x3d96d79b	0.07365342
185	0x3da59756	0.08085506
186	0x3d72d2e5	0.059283156
187	0xbba4aa79	-0.0050252047
188	0x3d911562	0.070841566
189	0x3dd094e1	0.101846464
190	0xbd11819f	-0.035524007
191	0xbac3c46a	-0.0014935855
192	0xbdbeb5c0	-0.0931201
193	0x3cbbcf4d	0.022925997
194	0xbc03bb69	-0.0080402875
195	0x3ba0fe4b	0.0049131266
196	0xbc9862d1	-0.018601807
197	0xbcf8aeef	-0.030356852
198	0xbb125870	-0.0022330545
199	0xbcc88ad7	-0.024480266
200	0xbe01a2ed	-0.12659808
201	0xbe452139	-0.19250955
202	0xbe4d79f6	-0.20066056
203	0xbe079f24	-0.13244301
204	0xbdc80eb1	-0.09768427
205	0xbdac4cea	-0.08413108
206	0xbd2f3879	-0.042778466
207	0xbc9a3dea	-0.018828351
208	0x3d52f208	0.05150035
209	0x3d721d91	0.059110228
210	0x3cb2ac8e	0.021810796
211	0x3de2895a	0.11061354
212	0x3dc5a06c	0.09649739
213	0x3d160db2	0.036634155
214	0x3d4ef1d3	0.05052359
215	0xbbed4a88	-0.007241551
216	0x3c1cf6ed	0.009580356
217	0x3db75c65	0.0895317
218	0x3d750577	0.059819665
219	0x3d42aace	0.047526173
220	0xbc70bfad	-0.014694137
221	0x3c51956f	0.012791975
222	0x3b1673ff	0.0022957323
223	0xbc5de755	-0.013543923
224	0x3b2061e0	0.00244724
225	0xbbf050a3	-0.0073338314
226	0xbc7b04e8	-0.015320994
227	0xbdb29ef9	-0.08721728
228	0xbdb8beaa	-0.09020741
229	0xbe197cf2	-0.14989069
230	0xbdb80081	-0.08984471
231	0xbddba93e	-0.1072564
232	0xbd4c1f10	-0.04983431
233	0xbe04719d	-0.12933965
234	0x3ca233d9	0.019800114
235	0x3c1670f8	0.009182207
236	0xbb2125a5	-0.0024589088
237	0x3dc55532	0.0963539
238	0x3dd8f9ca	0.105945185
239	0x3d70694e	0.058694176
240	0x3cefc3c6	0.029268157
241	0xbd30c694	-0.04315813
242	0xbc37f5b4	-0.011228014
243	0x3c4560f4	0.012047041
244	0xbccffbeb	-0.025388679
245	0xbc30352e	-0.0107548665
246	0x3c04720a	0.00808383
247	0x3e07df68	0.13268816
248	0x3d5e0e06	0.054212593
249	0x3d6e7877	0.058220353
250	0x3d3e465e	0.046453826
251	0xbcdeb856	-0.027187508
252	0x3d03b332	0.032153316
253	0x3c988dbf	0.018622277
254	0xbd383d85	-0.044980545
255	0xbd6223af	-0.05520981

fc1.bias f4 [28]
0	0xbcf6017a	-0.030030001
1	0xbccd3334	-0.02504883
2	0x3c0d4ab1	0.008623765
3	0x3ca141fe	0.019684788
4	0x3d15dbef	0.0365867
5	0xbd0b986c	-0.034080908
6	0x3d8253eb	0.06363662
7	0xbbabdc3d	-0.0052447603
8	0xbc14b072	-0.009075271
9	0x3c57977a	0.013158673
10	0xbd19051c	-0.03735839
11	0xbb99e09f	-0.0046959664
12	0xba149ad2	-0.0005668822
13	0x3d3d7257	0.04625162
14	0x3cc29cc0	0.023756385
15	0x3cd5c0f3	0.026092982
16	0xbc6c4429	-0.0144205475
17	0x3cb7b5ff	0.02242565
18	0xbc14bfc1	-0.009078921
19	0x3b2f8601	0.0026782753
20	0x3c3ab9f3	0.011396873
21	0xbc5f8cf6	-0.013644448
22	0x3be1cccb	0.0068908683
23	0x3d5d7bb1	0.05407304
24	0xbce8e7eb	-0.0284309
25	0xbcd4eec5	-0.02599276
26	0x3d6b3bc2	0.057430036
27	0xbc5faf3d	-0.01365262

fc2.weight f4 [10, 28]
0	0xbe9bcf67	-0.30431673
1	0x3d627386	0.055285953
2	0xbeacdef1	-0.3376384
3	0xbee24305	-0.44191757
4	0xbda507c2	-0.0805812
5	0x3e10226e	0.14075634
6	0xbdad6e53	-0.08468308
7	0xbe82b31f	-0.25527284
8	0x3e86acb2	0.2630363
9	0x3d884587	0.06653886
10	0x3ddc5921	0.107591875
11	0xbe13acf4	-0.14421445
12	0x3d8fd3d4	0.07022825
13	0x3db8caad	0.09023032
14	0x3e6c344b	0.23066823
15	0x3df77c34	0.12084237
16	0xbe2fd96c	-0.17172784
17	0x3daa3c6c	0.08312306
18	0xbd0cae55	-0.034345943
19	0xbec1af89	-0.37829235
20	0x3e22482d	0.15847845
21	0xbe048839	-0.1294259
22	0xbf213c67	-0.6298279
23	0xbdd9f2ea	-0.10642035
24	0x3e1b2f9f	0.15154885
25	0x3e3ac0ff	0.18237685
26	0xbd99b07a	-0.07504363
27	0xbe1b923e	-0.15192506
28	0x3e05fb63	0.13084178
29	0x3e5e764e	0.21724817
30	0x3df78a47	0.12086921
31	0xbec54fef	-0.38537547
32	0xbe7d7bc1	-0.2475424
33	0x3e230272	0.15918902
34	0xbd80ee4b	-0.06295451
35	0x3ed974c2	0.42471892
36	0x3db8c398	0.090216815
37	0x3acdf2f6	0.0015712667
38	0x3d967adf	0.073476546
39	0xbdbef602	-0.09324266
40	0xbe17040d	-0.14747639
41	0xbee0dd3d	-0.4391879
42	0x3d3d0381	0.04614592
43	0xbc846e94	-0.016166009
44	0x3e3ea13f	0.18616198
45	0x3bebe470	0.0071988627
46	0xbdc3818d	-0.09546194
47	0x3da43c5d	0.08019326
48	0xbedb41e5	-0.4282371
49	0x3e297078	0.1654681
50	0x3e89ca50	0.26912165
51	0x3bc9d679	0.0061596003
52	0x39c0ac5f	0.0003674952
53	0xbdd23d39	-0.102655835
54	0xbdc76c53	-0.09737458
55	0x3e8c9149	0.27454594
56	0x3e5d69bf	0.2162237
57	0xbf10a6a4	-0.56504273
58	0x3de70953	0.11281075
59	0xbe5ae3f9	-0.21376027
60	0xbe676ac2	-0.22599319
61	0x3e2a6744	0.16640955
62	0xbdf2618f	-0.11835014
63	0x3ddc58a8	0.10759097
64	0x3e07ba23	0.132546
65	0xbe371190	-0.17877793
66	0x3e1402bb	0.14454167
67	0x3e37f928	0.1796614
68	0x3c870c72	0.016485427
69	0xbe302547	-0.1720172
70	0x3dbee657	0.093212776
71	0x3c43ce47	0.011951036
72	0x3dec79e4	0.11546686
73	0x3e679550	0.22615552
74	0xbf06ff46	-0.52733266
75	0x3e55c054	0.20874149
76	0x3e0ab3cc	0.1354515
77	0x3e334404	0.17506415
78	0x3ced1a30	0.028943151
79	0xbda0c0d0	-0.07849276
80	0x3de05fde	0.10955785
81	0xbe108a46	-0.14115247
82	0x3e22e637	0.15908132
83	0x3eb65d5c	0.35618103
84	0xbe761651	-0.2403195
85	0x3d2f1c96	0.04275187
86	0xbd04b23b	-0.032396536
87	0x3e461963	0.19345622
88	0xbe5171a4	-0.20453507
89	0xbe6bcb69	-0.23026814
90	0x3e63d7d9	0.22250308
91	0x3dd4b6ac	0.103864044
92	0x3d9d51b7	0.076816015
93	0xbec92b01	-0.39290622
94	0x3df2ed93	0.1186172
95	0x3e0b62cf	0.13611911
96	0x3e7af5f6	0.24507889
97	0x3da171d7	0.07883041
98	0xbe37fabf	-0.17966746
99	0xbde7fbae	-0.11327301
100	0x3e87562d	0.26432934
101	0x3e385f67	0.18005143
102	0xbe0f37fc	-0.139862
103	0x3db6df3c	0.08929297
104	0xbd5c5243	-0.05378939
105	0xbd187a94	-0.037226275
106	0x3dc0ae46	0.0940824
107	0x3e5d81b9	0.21631517
108	0xbe173fbc	-0.14770406
109	0xbe975526	-0.2955715
110	0x3c45fd56	0.012084326
111	0xbd7bf1b5	-0.061509807
112	0x3ca00af1	0.019536467
113	0x3e813ddb	0.25242504
114	0x3e1f0092	0.15527561
115	0x3da8a6ef	0.08234965
116	0x3d78c13e	0.060731165
117	0x3d3a4614	0.045476988
118	0xbe98c2fc	-0.2983626
119	0xbcd60f98	-0.026130483
120	0xbf4eb8b7	-0.807506
121	0x3c78d5cc	0.015187692
122	0x3d9b2954	0.07576242
123	0x3df6ec9f	0.12056851
124	0xbeb27d7d	-0.34861365
125	0x3e7c1345	0.24616726
126	0xbe02d720	-0.12777376
127	0x3d24d33a	0.040240504
128	0x3e8ac2bc	0.27101696
129	0xbf317ca8	-0.69330835
130	0x3d965e8d	0.07342253
131	0xbea2208e	-0.31665462
132	0xbe44de81	-0.19225504
133	0xbe15e48a	-0.14637962
134	0x3e2994a7	0.16560613
135	0xbe4b6018	-0.19860876
136	0xbed29ca6	-0.41135138
137	0x3e2dc21d	0.1696858
138	0x3e86b0dc	0.26306808
139	0xbe04200c	-0.1290285
140	0xbddeed0e	-0.10885058
141	0xbe4de43d	-0.20106597
142	0xbc80aa03	-0.015706068
143	0x3e71a25f	0.23597096
144	0x3e012328	0.12611067
145	0xbee9acd3	-0.45639667
146	0xbdcd0a8d	-0.10011778
147	0xbe3b0635	-0.18264087
148	0x3ea06ef2	0.31334645
149	0x3dfd7597	0.12375944
150	0x3e1493f1	0.1450956
151	0xbee113fa	-0.43960553
152	0xbe772104	-0.24133688
153	0xbde7e718	-0.113233745
154	0x3dae7632	0.08518638
155	0x3e8cd6b4	0.27507555
156	0xbe409f84	-0.1881085
157	0xbdb3d04a	-0.08779962
158	0x3e7487a5	0.2387987
159	0x3e4bd9e6	0.1990734
160	0x3e125521	0.14290287
161	0x3cdce301	0.026963713
162	0x3e25ecfb	0.16203682
163	0x3e0952ec	0.13410538
164	0xbe8b3692	-0.2719007
165	0xbe753519	-0.23946036
166	0x3e0a354e	0.13496897
167	0xbb6a9f92	-0.0035800678
168	0xbd8d8d6c	-0.0691174
169	0xbe104ed6	-0.14092574
170	0x3e168941	0.14700796
171	0xbec6867e	-0.38774484
172	0x3dfe1f33	0.124082945
173	0x3e4f272e	0.2022979
174	0xbe2153cb	-0.1575462
175	0xbe8bd2a5	-0.27309147
176	0x3e4a6a45	0.19767101
177	0xbc038767	-0.008027888
178	0x3e0be31f	0.13660859
179	0xbeaa2541	-0.33231547
180	0x3e45643f	0.19276522
181	0x3d91b0f2	0.07113828
182	0x3eac1dba	0.3361643
183	0xbf01c206	-0.5068668
184	0x3e248f7f	0.16070364
185	0xbeab5a7c	-0.33467472
186	0x3e32a36a	0.1744515
187	0xbe0097f3	-0.12557964
188	0x3dde8b7f	0.108664505
189	0xbdefaf12	-0.11703314
190	0xbe65abf9	-0.22428884
191	0xbeff0e6d	-0.49815693
192	0xbedeff29	-0.43554047
193	0xbdd7321b	-0.10507604
194	0x3dcb0a75	0.09914104
195	0x3e618cfc	0.22026438
196	0x3b8a6d35	0.0042244443
197	0x3d9b86b1	0.0759405
198	0x3ddbd7ff	0.10734557
199	0xbc6b2d9e	-0.014354138
200	0x3e542f8c	0.20721263
201	0x3e139e07	0.14415751
202	0xbe2fdab4	-0.17173272
203	0x3eb47a50	0.35249567
204	0xbe04edf5	-0.12981398
205	0x3e8b339a	0.27187806
206	0xbef27fb8	-0.47363067
207	0x3b9e17ae	0.0048246
208	0x3b8f5c14	0.0043749902
209	0x3d32254a	0.043492593
210	0xbea16d29	-0.31528595
211	0x3e9f795c	0.31147277
212	0xbdd2b52e	-0.102884635
213	0x3c934b80	0.017980337
214	0xbe2eae71	-0.17058732
215	0x3e7f6606	0.24941263
216	0x3daf4a2d	0.0855907
217	0xbc16d19e	-0.00920525
218	0xbec95614	-0.39323485
219	0x3da35976	0.07976048
220	0x3e4bcdbc	0.199027
221	0xbe03197e	-0.12802693
222	0xbe9d8883	-0.30768213
223	0x3e9f1ae9	0.31075218
224	0x3dbda3c3	0.09259751
225	0xbe4a5160	-0.19757605
226	0xbbf05f1e	-0.0073355576
227	0x3e000122	0.12500432
228	0xbc7f8952	-0.015596705
229	0x3e276ac1	0.16349317
230	0x3e69e488	0.22841084
231	0xbf0feb7b	-0.5621869
232	0xbdc0f7f6	-0.09422295
233	0xbebd6c21	-0.36996558
234	0xbe05cbb1	-0.13065983
235	0x3e08ef3a	0.13372508
236	0xbe89b7eb	-0.2689813
237	0x3ca8feb9	0.020629274
238	0x3e106cd2	0.14104012
239	0xbe94bc5e	-0.29049963
240	0xbc9a1674	-0.018809535
241	0x3d596185	0.053071517
242	0x3e066d42	0.13127616
243	0xbc3d9c9d	-0.011572984
244	0xbdf6a987	-0.120440535
245	0x3d72f065	0.05931129
246	0x3e4f4480	0.20240974
247	0xbde4d5ee	-0.11173616
248	0xbe18b90b	-0.14914338
249	0x3e1da03d	0.15393157
250	0x3e14aa44	0.14518076
251	0xbe6466d7	-0.22304855
252	0x3e91f42b	0.28506598
253	0x3e02f5a8	0.12789023
254	0x3d35840b	0.04431538
255	0x3e39e5fa	0.18154135

fc2.bias f4 [10]
0	0x3b644a62	0.0034834375
1	0x3cd6c6c7	0.026217831
2	0xbd6f01f1	-0.05835146
3	0x3dcdf2c0	0.100560665
4	0xbdf23914	-0.11827293
5	0xbd484a8d	-0.048899222
6	0x3df4650f	0.11933338
7	0xbd86eb11	-0.06587804
8	0xbc4c4ba5	-0.012469207
9	0x3e511659	0.20418681
